…
1.bias', 'tblocks.3.attn.qkv.weight', 'tblocks.3.attn.qkv.bias', 'tblocks.3.attn.proj.weight', 'tblocks.3.attn.proj.bias', 'tblocks.3.norm2.weight', 'tblocks.3.norm2.bias', 'tblocks.3.mlp.fc1.weight', 'tblocks.3.mlp.fc1.bias', 'tblocks.3.mlp.fc2.weight', 'tblocks.3.mlp.fc2.bias', 'fc.weight', 'fc.bias']
[07/05 05:12:31] pts.model.base_net INFO: Unexpect keys: ['head.weight', 'head.bias']
[07/05 05:12:31] pts.model.base_net INFO: ==> loaded checkpoint '/data/tanyi/deit_small_patch16_224-cd65a155.pth'
[07/05 05:12:31] pts.engine.defaults INFO: Model:
Vivit(
  (patch_embed): PatchEmbed(
    (proj): Conv3d(3, 384, kernel_size=(2, 16, 16), stride=(2, 16, 16))
  )
  (pos_drop): Dropout(p=0.0, inplace=False)
  (blocks): ModuleList(
    (0): Block(
      (norm1): LayerNorm((384,), eps=1e-06, elementwise_affine=True)
      (attn): Attention(
        (qkv): Linear(in_features=384, out_features=1152, bias=True)
        (attn_drop): Dropout(p=0.0, inplace=False)
        (proj): Linear(in_features=384, out_features=384, bias=True)
        (proj_drop): Dropout(p=0.0, inplace=False)
      )
      (drop_path): Identity()
      (norm2): LayerNorm((384,), eps=1e-06, elementwise_affine=True)
      (mlp): Mlp(
        (fc1): Linear(in_features=384, out_features=1536, bias=True)
        (act): GELU(approximate='none')
        (fc2): Linear(in_features=1536, out_features=384, bias=True)
        (drop): Dropout(p=0.0, inplace=False)
      )
    )
    (1-11): 11 x Block(
      (norm1): LayerNorm((384,), eps=1e-06, elementwise_affine=True)
      (attn): Attention(
        (qkv): Linear(in_features=384, out_features=1152, bias=True)
        (attn_drop): Dropout(p=0.0, inplace=False)
        (proj): Linear(in_features=384, out_features=384, bias=True)
        (proj_drop): Dropout(p=0.0, inplace=False)
      )
      (drop_path): DropPath()
      (norm2): LayerNorm((384,), eps=1e-06, elementwise_affine=True)
      (mlp): Mlp(
        (fc1): Linear(in_features=384, out_features=1536, bias=True)
        (act): GELU(approximate='none')
        (fc2): Linear(in_features=1536, out_features=384, bias=True)
        (drop): Dropout(p=0.0, inplace=False)
      )
    )
  )
  (tblocks): ModuleList(
    (0-3): 4 x Block(
      (norm1): LayerNorm((384,), eps=1e-06, elementwise_affine=True)
      (attn): Attention(
        (qkv): Linear(in_features=384, out_features=1152, bias=True)
        (attn_drop): Dropout(p=0.0, inplace=False)
        (proj): Linear(in_features=384, out_features=384, bias=True)
        (proj_drop): Dropout(p=0.0, inplace=False)
      )
      (drop_path): DropPath()
      (norm2): LayerNorm((384,), eps=1e-06, elementwise_affine=True)
      (mlp): Mlp(
        (fc1): Linear(in_features=384, out_features=1536, bias=True)
        (act): GELU(approximate='none')
        (fc2): Linear(in_features=1536, out_features=384, bias=True)
        (drop): Dropout(p=0.0, inplace=False)
      )
    )
  )
  (norm): LayerNorm((384,), eps=1e-06, elementwise_affine=True)
  (pre_logits): Identity()
  (drop): Dropout(p=0.0, inplace=False)
  (fc): Linear(in_features=384, out_features=48, bias=True)
)
[07/05 05:12:40] fvcore.common.checkpoint INFO: No checkpoint found. Initializing model from scratch
[07/05 05:12:40] pts.engine.train_loop INFO: Starting training from iteration 0
[07/05 05:14:46] pts.utils.events INFO:  eta: 2:09:13  iter: 49 -- [49/469]  total_loss: 7.796  soft_target_cross_entropy_loss: 3.733  loss_ofl: 4.034  mask_loss: 0.0205  time: 0.5245  data_time: 0.2785  lr: 6.1373e-06  max_mem: 6569M
…
