…
  TEST_CROP_SIZE: 224
  TIME_DIM: T
  USE_FLOW: False
VERSION: 1
[07/03 23:06:59] pytorchvideo INFO: Full config saved to experiments/log_ucf_uniformer_s2s+t2t_8gpu_mixlr002/config.yaml
[07/03 23:06:59] pts.utils.env INFO: Using a generated random seed 62072906
[07/03 23:07:02] pts.model.Uniformer INFO: Ignore: head.weight
[07/03 23:07:02] pts.model.Uniformer INFO: Ignore: head.bias
[07/03 23:07:05] pts.model.Uniformer INFO: Ignore: head.weight
[07/03 23:07:05] pts.model.Uniformer INFO: Ignore: head.bias
[07/03 23:07:05] pts.engine.defaults INFO: Model:
Uniformer(
  (patch_embed1): SpeicalPatchEmbed(
    (norm): LayerNorm((64,), eps=1e-05, elementwise_affine=True)
    (proj): Conv3d(3, 64, kernel_size=(3, 4, 4), stride=(2, 4, 4), padding=(1, 0, 0))
  )
  (patch_embed2): PatchEmbed(
    (norm): LayerNorm((128,), eps=1e-05, elementwise_affine=True)
    (proj): Conv3d(64, 128, kernel_size=(1, 2, 2), stride=(1, 2, 2))
  )
  (patch_embed3): PatchEmbed(
    (norm): LayerNorm((320,), eps=1e-05, elementwise_affine=True)
    (proj): Conv3d(128, 320, kernel_size=(1, 2, 2), stride=(1, 2, 2))
  )
  (patch_embed4): PatchEmbed(
    (norm): LayerNorm((512,), eps=1e-05, elementwise_affine=True)
    (proj): Conv3d(320, 512, kernel_size=(1, 2, 2), stride=(1, 2, 2))
  )
  (pos_drop): Dropout(p=0.0, inplace=False)
  (blocks1): ModuleList(
    (0): CBlock(
      (pos_embed): Conv3d(64, 64, kernel_size=(3, 3, 3), stride=(1, 1, 1), padding=(1, 1, 1), groups=64)
      (norm1): BatchNorm3d(64, eps=1e-05, momentum=0.1, affine=True, track_running_stats=True)
      (conv1): Conv3d(64, 64, kernel_size=(1, 1, 1), stride=(1, 1, 1))
      (conv2): Conv3d(64, 64, kernel_size=(1, 1, 1), stride=(1, 1, 1))
      (attn): Conv3d(64, 64, kernel_size=(5, 5, 5), stride=(1, 1, 1), padding=(2, 2, 2), groups=64)
      (drop_path): Identity()
      (norm2): BatchNorm3d(64, eps=1e-05, momentum=0.1, affine=True, track_running_stats=True)
      (mlp): CMlp(
        (fc1): Conv3d(64, 256, kernel_size=(1, 1, 1), stride=(1, 1, 1))
        (act): GELU(approximate='none')
        (fc2): Conv3d(256, 64, kernel_size=(1, 1, 1), stride=(1, 1, 1))
        (drop): Dropout(p=0.0, inplace=False)
      )
    )
    (1): CBlock(
      (pos_embed): Conv3d(64, 64, kernel_size=(3, 3, 3), stride=(1, 1, 1), padding=(1, 1, 1), groups=64)
      (norm1): BatchNorm3d(64, eps=1e-05, momentum=0.1, affine=True, track_running_stats=True)
      (conv1): Conv3d(64, 64, kernel_size=(1, 1, 1), stride=(1, 1, 1))
      (conv2): Conv3d(64, 64, kernel_size=(1, 1, 1), stride=(1, 1, 1))
      (attn): Conv3d(64, 64, kernel_size=(5, 5, 5), stride=(1, 1, 1), padding=(2, 2, 2), groups=64)
      (drop_path): DropPath(drop_prob=0.012)
      (norm2): BatchNorm3d(64, eps=1e-05, momentum=0.1, affine=True, track_running_stats=True)
      (mlp): CMlp(
        (fc1): Conv3d(64, 256, kernel_size=(1, 1, 1), stride=(1, 1, 1))
        (act): GELU(approximate='none')
        (fc2): Conv3d(256, 64, kernel_size=(1, 1, 1), stride=(1, 1, 1))
        (drop): Dropout(p=0.0, inplace=False)
      )
    )
    (2): CBlock(
      (pos_embed): Conv3d(64, 64, kernel_size=(3, 3, 3), stride=(1, 1, 1), padding=(1, 1, 1), groups=64)
      (norm1): BatchNorm3d(64, eps=1e-05, momentum=0.1, affine=True, track_running_stats=True)
      (conv1): Conv3d(64, 64, kernel_size=(1, 1, 1), stride=(1, 1, 1))
      (conv2): Conv3d(64, 64, kernel_size=(1, 1, 1), stride=(1, 1, 1))
      (attn): Conv3d(64, 64, kernel_size=(5, 5, 5), stride=(1, 1, 1), padding=(2, 2, 2), groups=64)
      (drop_path): DropPath(drop_prob=0.024)
      (norm2): BatchNorm3d(64, eps=1e-05, momentum=0.1, affine=True, track_running_stats=True)
      (mlp): CMlp(
        (fc1): Conv3d(64, 256, kernel_size=(1, 1, 1), stride=(1, 1, 1))
        (act): GELU(approximate='none')
        (fc2): Conv3d(256, 64, kernel_size=(1, 1, 1), stride=(1, 1, 1))
        (drop): Dropout(p=0.0, inplace=False)
      )
    )
  )
  (blocks2): ModuleList(
    (0): CBlock(
      (pos_embed): Conv3d(128, 128, kernel_size=(3, 3, 3), stride=(1, 1, 1), padding=(1, 1, 1), groups=128)
      (norm1): BatchNorm3d(128, eps=1e-05, momentum=0.1, affine=True, track_running_stats=True)
      (conv1): Conv3d(128, 128, kernel_size=(1, 1, 1), stride=(1, 1, 1))
      (conv2): Conv3d(128, 128, kernel_size=(1, 1, 1), stride=(1, 1, 1))
      (attn): Conv3d(128, 128, kernel_size=(5, 5, 5), stride=(1, 1, 1), padding=(2, 2, 2), groups=128)
      (drop_path): DropPath(drop_prob=0.035)
      (norm2): BatchNorm3d(128, eps=1e-05, momentum=0.1, affine=True, track_running_stats=True)
      (mlp): CMlp(
        (fc1): Conv3d(128, 512, kernel_size=(1, 1, 1), stride=(1, 1, 1))
        (act): GELU(approximate='none')
        (fc2): Conv3d(512, 128, kernel_size=(1, 1, 1), stride=(1, 1, 1))
        (drop): Dropout(p=0.0, inplace=False)
      )
    )
    (1): CBlock(
      (pos_embed): Conv3d(128, 128, kernel_size=(3, 3, 3), stride=(1, 1, 1), padding=(1, 1, 1), groups=128)
      (norm1): BatchNorm3d(128, eps=1e-05, momentum=0.1, affine=True, track_running_stats=True)
      (conv1): Conv3d(128, 128, kernel_size=(1, 1, 1), stride=(1, 1, 1))
      (conv2): Conv3d(128, 128, kernel_size=(1, 1, 1), stride=(1, 1, 1))
      (attn): Conv3d(128, 128, kernel_size=(5, 5, 5), stride=(1, 1, 1), padding=(2, 2, 2), groups=128)
      (drop_path): DropPath(drop_prob=0.047)
      (norm2): BatchNorm3d(128, eps=1e-05, momentum=0.1, affine=True, track_running_stats=True)
      (mlp): CMlp(
        (fc1): Conv3d(128, 512, kernel_size=(1, 1, 1), stride=(1, 1, 1))
        (act): GELU(approximate='none')
        (fc2): Conv3d(512, 128, kernel_size=(1, 1, 1), stride=(1, 1, 1))
        (drop): Dropout(p=0.0, inplace=False)
      )
    )
    (2): CBlock(
      (pos_embed): Conv3d(128, 128, kernel_size=(3, 3, 3), stride=(1, 1, 1), padding=(1, 1, 1), groups=128)
      (norm1): BatchNorm3d(128, eps=1e-05, momentum=0.1, affine=True, track_running_stats=True)
      (conv1): Conv3d(128, 128, kernel_size=(1, 1, 1), stride=(1, 1, 1))
      (conv2): Conv3d(128, 128, kernel_size=(1, 1, 1), stride=(1, 1, 1))
      (attn): Conv3d(128, 128, kernel_size=(5, 5, 5), stride=(1, 1, 1), padding=(2, 2, 2), groups=128)
      (drop_path): DropPath(drop_prob=0.059)
      (norm2): BatchNorm3d(128, eps=1e-05, momentum=0.1, affine=True, track_running_stats=True)
      (mlp): CMlp(
        (fc1): Conv3d(128, 512, kernel_size=(1, 1, 1), stride=(1, 1, 1))
        (act): GELU(approximate='none')
        (fc2): Conv3d(512, 128, kernel_size=(1, 1, 1), stride=(1, 1, 1))
        (drop): Dropout(p=0.0, inplace=False)
      )
    )
    (3): CBlock(
      (pos_embed): Conv3d(128, 128, kernel_size=(3, 3, 3), stride=(1, 1, 1), padding=(1, 1, 1), groups=128)
      (norm1): BatchNorm3d(128, eps=1e-05, momentum=0.1, affine=True, track_running_stats=True)
      (conv1): Conv3d(128, 128, kernel_size=(1, 1, 1), stride=(1, 1, 1))
      (conv2): Conv3d(128, 128, kernel_size=(1, 1, 1), stride=(1, 1, 1))
      (attn): Conv3d(128, 128, kernel_size=(5, 5, 5), stride=(1, 1, 1), padding=(2, 2, 2), groups=128)
      (drop_path): DropPath(drop_prob=0.071)
      (norm2): BatchNorm3d(128, eps=1e-05, momentum=0.1, affine=True, track_running_stats=True)
      (mlp): CMlp(
        (fc1): Conv3d(128, 512, kernel_size=(1, 1, 1), stride=(1, 1, 1))
        (act): GELU(approximate='none')
        (fc2): Conv3d(512, 128, kernel_size=(1, 1, 1), stride=(1, 1, 1))
        (drop): Dropout(p=0.0, inplace=False)
      )
    )
  )
  (blocks3): ModuleList(
    (0): SABlock(
      (pos_embed): Conv3d(320, 320, kernel_size=(3, 3, 3), stride=(1, 1, 1), padding=(1, 1, 1), groups=320)
      (norm1): LayerNorm((320,), eps=1e-06, elementwise_affine=True)
      (attn): Attention(
        (qkv): Linear(in_features=320, out_features=960, bias=True)
        (attn_drop): Dropout(p=0.0, inplace=False)
        (proj): Linear(in_features=320, out_features=320, bias=True)
        (proj_drop): Dropout(p=0.0, inplace=False)
      )
      (drop_path): DropPath(drop_prob=0.082)
      (norm2): LayerNorm((320,), eps=1e-06, elementwise_affine=True)
      (mlp): Mlp(
        (fc1): Linear(in_features=320, out_features=1280, bias=True)
        (act): GELU(approximate='none')
        (fc2): Linear(in_features=1280, out_features=320, bias=True)
        (drop): Dropout(p=0.0, inplace=False)
      )
    )
    (1): SABlock(
      (pos_embed): Conv3d(320, 320, kernel_size=(3, 3, 3), stride=(1, 1, 1), padding=(1, 1, 1), groups=320)
      (norm1): LayerNorm((320,), eps=1e-06, elementwise_affine=True)
      (attn): Attention(
        (qkv): Linear(in_features=320, out_features=960, bias=True)
        (attn_drop): Dropout(p=0.0, inplace=False)
        (proj): Linear(in_features=320, out_features=320, bias=True)
        (proj_drop): Dropout(p=0.0, inplace=False)
      )
      (drop_path): DropPath(drop_prob=0.094)
      (norm2): LayerNorm((320,), eps=1e-06, elementwise_affine=True)
      (mlp): Mlp(
        (fc1): Linear(in_features=320, out_features=1280, bias=True)
        (act): GELU(approximate='none')
        (fc2): Linear(in_features=1280, out_features=320, bias=True)
        (drop): Dropout(p=0.0, inplace=False)
      )
    )
    (2): SABlock(
      (pos_embed): Conv3d(320, 320, kernel_size=(3, 3, 3), stride=(1, 1, 1), padding=(1, 1, 1), groups=320)
      (norm1): LayerNorm((320,), eps=1e-06, elementwise_affine=True)
      (attn): Attention(
        (qkv): Linear(in_features=320, out_features=960, bias=True)
        (attn_drop): Dropout(p=0.0, inplace=False)
        (proj): Linear(in_features=320, out_features=320, bias=True)
        (proj_drop): Dropout(p=0.0, inplace=False)
      )
      (drop_path): DropPath(drop_prob=0.106)
      (norm2): LayerNorm((320,), eps=1e-06, elementwise_affine=True)
      (mlp): Mlp(
        (fc1): Linear(in_features=320, out_features=1280, bias=True)
        (act): GELU(approximate='none')
        (fc2): Linear(in_features=1280, out_features=320, bias=True)
        (drop): Dropout(p=0.0, inplace=False)
      )
    )
    (3): SABlock(
      (pos_embed): Conv3d(320, 320, kernel_size=(3, 3, 3), stride=(1, 1, 1), padding=(1, 1, 1), groups=320)
      (norm1): LayerNorm((320,), eps=1e-06, elementwise_affine=True)
      (attn): Attention(
        (qkv): Linear(in_features=320, out_features=960, bias=True)
        (attn_drop): Dropout(p=0.0, inplace=False)
        (proj): Linear(in_features=320, out_features=320, bias=True)
        (proj_drop): Dropout(p=0.0, inplace=False)
      )
      (drop_path): DropPath(drop_prob=0.118)
      (norm2): LayerNorm((320,), eps=1e-06, elementwise_affine=True)
      (mlp): Mlp(
        (fc1): Linear(in_features=320, out_features=1280, bias=True)
        (act): GELU(approximate='none')
        (fc2): Linear(in_features=1280, out_features=320, bias=True)
        (drop): Dropout(p=0.0, inplace=False)
      )
    )
    (4): SABlock(
      (pos_embed): Conv3d(320, 320, kernel_size=(3, 3, 3), stride=(1, 1, 1), padding=(1, 1, 1), groups=320)
      (norm1): LayerNorm((320,), eps=1e-06, elementwise_affine=True)
      (attn): Attention(
        (qkv): Linear(in_features=320, out_features=960, bias=True)
        (attn_drop): Dropout(p=0.0, inplace=False)
        (proj): Linear(in_features=320, out_features=320, bias=True)
        (proj_drop): Dropout(p=0.0, inplace=False)
      )
      (drop_path): DropPath(drop_prob=0.129)
      (norm2): LayerNorm((320,), eps=1e-06, elementwise_affine=True)
      (mlp): Mlp(
        (fc1): Linear(in_features=320, out_features=1280, bias=True)
        (act): GELU(approximate='none')
        (fc2): Linear(in_features=1280, out_features=320, bias=True)
        (drop): Dropout(p=0.0, inplace=False)
      )
    )
    (5): SABlock(
      (pos_embed): Conv3d(320, 320, kernel_size=(3, 3, 3), stride=(1, 1, 1), padding=(1, 1, 1), groups=320)
      (norm1): LayerNorm((320,), eps=1e-06, elementwise_affine=True)
      (attn): Attention(
        (qkv): Linear(in_features=320, out_features=960, bias=True)
        (attn_drop): Dropout(p=0.0, inplace=False)
        (proj): Linear(in_features=320, out_features=320, bias=True)
        (proj_drop): Dropout(p=0.0, inplace=False)
      )
      (drop_path): DropPath(drop_prob=0.141)
      (norm2): LayerNorm((320,), eps=1e-06, elementwise_affine=True)
      (mlp): Mlp(
        (fc1): Linear(in_features=320, out_features=1280, bias=True)
        (act): GELU(approximate='none')
        (fc2): Linear(in_features=1280, out_features=320, bias=True)
        (drop): Dropout(p=0.0, inplace=False)
      )
    )
    (6): SABlock(
      (pos_embed): Conv3d(320, 320, kernel_size=(3, 3, 3), stride=(1, 1, 1), padding=(1, 1, 1), groups=320)
      (norm1): LayerNorm((320,), eps=1e-06, elementwise_affine=True)
      (attn): Attention(
        (qkv): Linear(in_features=320, out_features=960, bias=True)
        (attn_drop): Dropout(p=0.0, inplace=False)
        (proj): Linear(in_features=320, out_features=320, bias=True)
        (proj_drop): Dropout(p=0.0, inplace=False)
      )
      (drop_path): DropPath(drop_prob=0.153)
      (norm2): LayerNorm((320,), eps=1e-06, elementwise_affine=True)
      (mlp): Mlp(
        (fc1): Linear(in_features=320, out_features=1280, bias=True)
        (act): GELU(approximate='none')
        (fc2): Linear(in_features=1280, out_features=320, bias=True)
        (drop): Dropout(p=0.0, inplace=False)
      )
    )
    (7): SABlock(
      (pos_embed): Conv3d(320, 320, kernel_size=(3, 3, 3), stride=(1, 1, 1), padding=(1, 1, 1), groups=320)
      (norm1): LayerNorm((320,), eps=1e-06, elementwise_affine=True)
      (attn): Attention(
        (qkv): Linear(in_features=320, out_features=960, bias=True)
        (attn_drop): Dropout(p=0.0, inplace=False)
        (proj): Linear(in_features=320, out_features=320, bias=True)
        (proj_drop): Dropout(p=0.0, inplace=False)
      )
      (drop_path): DropPath(drop_prob=0.165)
      (norm2): LayerNorm((320,), eps=1e-06, elementwise_affine=True)
      (mlp): Mlp(
        (fc1): Linear(in_features=320, out_features=1280, bias=True)
        (act): GELU(approximate='none')
        (fc2): Linear(in_features=1280, out_features=320, bias=True)
        (drop): Dropout(p=0.0, inplace=False)
      )
    )
  )
  (blocks4): ModuleList(
    (0): SABlock(
      (pos_embed): Conv3d(512, 512, kernel_size=(3, 3, 3), stride=(1, 1, 1), padding=(1, 1, 1), groups=512)
      (norm1): LayerNorm((512,), eps=1e-06, elementwise_affine=True)
      (attn): Attention(
        (qkv): Linear(in_features=512, out_features=1536, bias=True)
        (attn_drop): Dropout(p=0.0, inplace=False)
        (proj): Linear(in_features=512, out_features=512, bias=True)
        (proj_drop): Dropout(p=0.0, inplace=False)
      )
      (drop_path): DropPath(drop_prob=0.176)
      (norm2): LayerNorm((512,), eps=1e-06, elementwise_affine=True)
      (mlp): Mlp(
        (fc1): Linear(in_features=512, out_features=2048, bias=True)
        (act): GELU(approximate='none')
        (fc2): Linear(in_features=2048, out_features=512, bias=True)
        (drop): Dropout(p=0.0, inplace=False)
      )
    )
    (1): SABlock(
      (pos_embed): Conv3d(512, 512, kernel_size=(3, 3, 3), stride=(1, 1, 1), padding=(1, 1, 1), groups=512)
      (norm1): LayerNorm((512,), eps=1e-06, elementwise_affine=True)
      (attn): Attention(
        (qkv): Linear(in_features=512, out_features=1536, bias=True)
        (attn_drop): Dropout(p=0.0, inplace=False)
        (proj): Linear(in_features=512, out_features=512, bias=True)
        (proj_drop): Dropout(p=0.0, inplace=False)
      )
      (drop_path): DropPath(drop_prob=0.188)
      (norm2): LayerNorm((512,), eps=1e-06, elementwise_affine=True)
      (mlp): Mlp(
        (fc1): Linear(in_features=512, out_features=2048, bias=True)
        (act): GELU(approximate='none')
        (fc2): Linear(in_features=2048, out_features=512, bias=True)
        (drop): Dropout(p=0.0, inplace=False)
      )
    )
    (2): SABlock(
      (pos_embed): Conv3d(512, 512, kernel_size=(3, 3, 3), stride=(1, 1, 1), padding=(1, 1, 1), groups=512)
      (norm1): LayerNorm((512,), eps=1e-06, elementwise_affine=True)
      (attn): Attention(
        (qkv): Linear(in_features=512, out_features=1536, bias=True)
        (attn_drop): Dropout(p=0.0, inplace=False)
        (proj): Linear(in_features=512, out_features=512, bias=True)
        (proj_drop): Dropout(p=0.0, inplace=False)
      )
      (drop_path): DropPath(drop_prob=0.200)
      (norm2): LayerNorm((512,), eps=1e-06, elementwise_affine=True)
      (mlp): Mlp(
        (fc1): Linear(in_features=512, out_features=2048, bias=True)
        (act): GELU(approximate='none')
        (fc2): Linear(in_features=2048, out_features=512, bias=True)
        (drop): Dropout(p=0.0, inplace=False)
      )
    )
  )
  (norm): BatchNorm3d(512, eps=1e-05, momentum=0.1, affine=True, track_running_stats=True)
  (pre_logits): Identity()
  (head): Linear(in_features=512, out_features=101, bias=True)
)
[07/03 23:07:13] fvcore.common.checkpoint INFO: No checkpoint found. Initializing model from scratch
[07/03 23:07:13] pts.engine.train_loop INFO: Starting training from iteration 0
[07/03 23:07:47] pts.engine.train_loop ERROR: Exception during training:
Traceback (most recent call last):
  File "/data/tanyi/ICCV23_learning_mask_tip_addEXP/pytorchvideo/engine/train_loop.py", line 151, in train
…
