…
ks.15.attn.relative_position_index', 'layers.2.blocks.16.attn.relative_position_index', 'layers.2.blocks.17.attn.relative_position_index', 'layers.3.blocks.0.attn.relative_position_index', 'layers.3.blocks.1.attn.relative_position_index', 'fc.weight', 'fc.bias']
[07/04 11:03:24] pts.model.base_net INFO: Unexpect keys: ['cls_head.fc_cls.weight', 'cls_head.fc_cls.bias']
[07/04 11:03:24] pts.model.base_net INFO: ==> loaded checkpoint '/data/tanyi/swin_small_patch244_window877_kinetics400_1k.pth'
[07/04 11:03:24] pts.engine.defaults INFO: Model:
VIDEO_SWIN(
  (patch_embed): PatchEmbed3D(
    (proj): Conv3d(3, 96, kernel_size=(2, 4, 4), stride=(2, 4, 4))
    (norm): LayerNorm((96,), eps=1e-05, elementwise_affine=True)
  )
  (pos_drop): Dropout(p=0.0, inplace=False)
  (layers): ModuleList(
    (0): BasicLayer(
      (blocks): ModuleList(
        (0): SwinTransformerBlock3D(
          (norm1): LayerNorm((96,), eps=1e-05, elementwise_affine=True)
          (attn): WindowAttention3D(
            (qkv): Linear(in_features=96, out_features=288, bias=True)
            (attn_drop): Dropout(p=0.0, inplace=False)
            (proj): Linear(in_features=96, out_features=96, bias=True)
            (proj_drop): Dropout(p=0.0, inplace=False)
            (softmax): Softmax(dim=-1)
          )
          (drop_path): Identity()
          (norm2): LayerNorm((96,), eps=1e-05, elementwise_affine=True)
          (mlp): Mlp(
            (fc1): Linear(in_features=96, out_features=384, bias=True)
            (act): GELU(approximate='none')
            (fc2): Linear(in_features=384, out_features=96, bias=True)
            (drop): Dropout(p=0.0, inplace=False)
          )
        )
        (1): SwinTransformerBlock3D(
          (norm1): LayerNorm((96,), eps=1e-05, elementwise_affine=True)
          (attn): WindowAttention3D(
            (qkv): Linear(in_features=96, out_features=288, bias=True)
            (attn_drop): Dropout(p=0.0, inplace=False)
            (proj): Linear(in_features=96, out_features=96, bias=True)
            (proj_drop): Dropout(p=0.0, inplace=False)
            (softmax): Softmax(dim=-1)
          )
          (drop_path): DropPath()
          (norm2): LayerNorm((96,), eps=1e-05, elementwise_affine=True)
          (mlp): Mlp(
            (fc1): Linear(in_features=96, out_features=384, bias=True)
            (act): GELU(approximate='none')
            (fc2): Linear(in_features=384, out_features=96, bias=True)
            (drop): Dropout(p=0.0, inplace=False)
          )
        )
      )
      (downsample): PatchMerging(
        (reduction): Linear(in_features=384, out_features=192, bias=False)
        (norm): LayerNorm((384,), eps=1e-05, elementwise_affine=True)
      )
    )
    (1): BasicLayer(
      (blocks): ModuleList(
        (0-1): 2 x SwinTransformerBlock3D(
          (norm1): LayerNorm((192,), eps=1e-05, elementwise_affine=True)
          (attn): WindowAttention3D(
            (qkv): Linear(in_features=192, out_features=576, bias=True)
            (attn_drop): Dropout(p=0.0, inplace=False)
            (proj): Linear(in_features=192, out_features=192, bias=True)
            (proj_drop): Dropout(p=0.0, inplace=False)
            (softmax): Softmax(dim=-1)
          )
          (drop_path): DropPath()
          (norm2): LayerNorm((192,), eps=1e-05, elementwise_affine=True)
          (mlp): Mlp(
            (fc1): Linear(in_features=192, out_features=768, bias=True)
            (act): GELU(approximate='none')
            (fc2): Linear(in_features=768, out_features=192, bias=True)
            (drop): Dropout(p=0.0, inplace=False)
          )
        )
      )
      (downsample): PatchMerging(
        (reduction): Linear(in_features=768, out_features=384, bias=False)
        (norm): LayerNorm((768,), eps=1e-05, elementwise_affine=True)
      )
    )
    (2): BasicLayer(
      (blocks): ModuleList(
        (0-17): 18 x SwinTransformerBlock3D(
          (norm1): LayerNorm((384,), eps=1e-05, elementwise_affine=True)
          (attn): WindowAttention3D(
            (qkv): Linear(in_features=384, out_features=1152, bias=True)
            (attn_drop): Dropout(p=0.0, inplace=False)
            (proj): Linear(in_features=384, out_features=384, bias=True)
            (proj_drop): Dropout(p=0.0, inplace=False)
            (softmax): Softmax(dim=-1)
          )
          (drop_path): DropPath()
          (norm2): LayerNorm((384,), eps=1e-05, elementwise_affine=True)
          (mlp): Mlp(
            (fc1): Linear(in_features=384, out_features=1536, bias=True)
            (act): GELU(approximate='none')
            (fc2): Linear(in_features=1536, out_features=384, bias=True)
            (drop): Dropout(p=0.0, inplace=False)
          )
        )
      )
      (downsample): PatchMerging(
        (reduction): Linear(in_features=1536, out_features=768, bias=False)
        (norm): LayerNorm((1536,), eps=1e-05, elementwise_affine=True)
      )
    )
    (3): BasicLayer(
      (blocks): ModuleList(
        (0-1): 2 x SwinTransformerBlock3D(
          (norm1): LayerNorm((768,), eps=1e-05, elementwise_affine=True)
          (attn): WindowAttention3D(
            (qkv): Linear(in_features=768, out_features=2304, bias=True)
            (attn_drop): Dropout(p=0.0, inplace=False)
            (proj): Linear(in_features=768, out_features=768, bias=True)
            (proj_drop): Dropout(p=0.0, inplace=False)
            (softmax): Softmax(dim=-1)
          )
          (drop_path): DropPath()
          (norm2): LayerNorm((768,), eps=1e-05, elementwise_affine=True)
          (mlp): Mlp(
            (fc1): Linear(in_features=768, out_features=3072, bias=True)
            (act): GELU(approximate='none')
            (fc2): Linear(in_features=3072, out_features=768, bias=True)
            (drop): Dropout(p=0.0, inplace=False)
          )
        )
      )
    )
  )
  (norm): LayerNorm((768,), eps=1e-05, elementwise_affine=True)
  (avgpool): AdaptiveAvgPool3d(output_size=1)
  (fc): Linear(in_features=768, out_features=48, bias=True)
)
[07/04 11:03:33] fvcore.common.checkpoint INFO: No checkpoint found. Initializing model from scratch
[07/04 11:03:33] pts.engine.train_loop INFO: Starting training from iteration 0
[07/04 11:13:25] pytorchvideo INFO: Rank of current process: 0. World size: 4
[07/04 11:13:26] pytorchvideo INFO: Environment info:
----------------------  ---------------------------------------------------------------------------------------
…
ks.15.attn.relative_position_index', 'layers.2.blocks.16.attn.relative_position_index', 'layers.2.blocks.17.attn.relative_position_index', 'layers.3.blocks.0.attn.relative_position_index', 'layers.3.blocks.1.attn.relative_position_index', 'fc.weight', 'fc.bias']
[07/04 18:17:24] pts.model.base_net INFO: Unexpect keys: ['cls_head.fc_cls.weight', 'cls_head.fc_cls.bias']
[07/04 18:17:24] pts.model.base_net INFO: ==> loaded checkpoint '/data/tanyi/swin_small_patch244_window877_kinetics400_1k.pth'
[07/04 18:17:25] pts.engine.defaults INFO: Model:
VIDEO_SWIN(
  (patch_embed): PatchEmbed3D(
    (proj): Conv3d(3, 96, kernel_size=(2, 4, 4), stride=(2, 4, 4))
    (norm): LayerNorm((96,), eps=1e-05, elementwise_affine=True)
  )
  (pos_drop): Dropout(p=0.0, inplace=False)
  (layers): ModuleList(
    (0): BasicLayer(
      (blocks): ModuleList(
        (0): SwinTransformerBlock3D(
          (norm1): LayerNorm((96,), eps=1e-05, elementwise_affine=True)
          (attn): WindowAttention3D(
            (qkv): Linear(in_features=96, out_features=288, bias=True)
            (attn_drop): Dropout(p=0.0, inplace=False)
            (proj): Linear(in_features=96, out_features=96, bias=True)
            (proj_drop): Dropout(p=0.0, inplace=False)
            (softmax): Softmax(dim=-1)
          )
          (drop_path): Identity()
          (norm2): LayerNorm((96,), eps=1e-05, elementwise_affine=True)
          (mlp): Mlp(
            (fc1): Linear(in_features=96, out_features=384, bias=True)
            (act): GELU(approximate='none')
            (fc2): Linear(in_features=384, out_features=96, bias=True)
            (drop): Dropout(p=0.0, inplace=False)
          )
        )
        (1): SwinTransformerBlock3D(
          (norm1): LayerNorm((96,), eps=1e-05, elementwise_affine=True)
          (attn): WindowAttention3D(
            (qkv): Linear(in_features=96, out_features=288, bias=True)
            (attn_drop): Dropout(p=0.0, inplace=False)
            (proj): Linear(in_features=96, out_features=96, bias=True)
            (proj_drop): Dropout(p=0.0, inplace=False)
            (softmax): Softmax(dim=-1)
          )
          (drop_path): DropPath()
          (norm2): LayerNorm((96,), eps=1e-05, elementwise_affine=True)
          (mlp): Mlp(
            (fc1): Linear(in_features=96, out_features=384, bias=True)
            (act): GELU(approximate='none')
            (fc2): Linear(in_features=384, out_features=96, bias=True)
            (drop): Dropout(p=0.0, inplace=False)
          )
        )
      )
      (downsample): PatchMerging(
        (reduction): Linear(in_features=384, out_features=192, bias=False)
        (norm): LayerNorm((384,), eps=1e-05, elementwise_affine=True)
      )
    )
    (1): BasicLayer(
      (blocks): ModuleList(
        (0-1): 2 x SwinTransformerBlock3D(
          (norm1): LayerNorm((192,), eps=1e-05, elementwise_affine=True)
          (attn): WindowAttention3D(
            (qkv): Linear(in_features=192, out_features=576, bias=True)
            (attn_drop): Dropout(p=0.0, inplace=False)
            (proj): Linear(in_features=192, out_features=192, bias=True)
            (proj_drop): Dropout(p=0.0, inplace=False)
            (softmax): Softmax(dim=-1)
          )
          (drop_path): DropPath()
          (norm2): LayerNorm((192,), eps=1e-05, elementwise_affine=True)
          (mlp): Mlp(
            (fc1): Linear(in_features=192, out_features=768, bias=True)
            (act): GELU(approximate='none')
            (fc2): Linear(in_features=768, out_features=192, bias=True)
            (drop): Dropout(p=0.0, inplace=False)
          )
        )
      )
      (downsample): PatchMerging(
        (reduction): Linear(in_features=768, out_features=384, bias=False)
        (norm): LayerNorm((768,), eps=1e-05, elementwise_affine=True)
      )
    )
    (2): BasicLayer(
      (blocks): ModuleList(
        (0-17): 18 x SwinTransformerBlock3D(
          (norm1): LayerNorm((384,), eps=1e-05, elementwise_affine=True)
          (attn): WindowAttention3D(
            (qkv): Linear(in_features=384, out_features=1152, bias=True)
            (attn_drop): Dropout(p=0.0, inplace=False)
            (proj): Linear(in_features=384, out_features=384, bias=True)
            (proj_drop): Dropout(p=0.0, inplace=False)
            (softmax): Softmax(dim=-1)
          )
          (drop_path): DropPath()
          (norm2): LayerNorm((384,), eps=1e-05, elementwise_affine=True)
          (mlp): Mlp(
            (fc1): Linear(in_features=384, out_features=1536, bias=True)
            (act): GELU(approximate='none')
            (fc2): Linear(in_features=1536, out_features=384, bias=True)
            (drop): Dropout(p=0.0, inplace=False)
          )
        )
      )
      (downsample): PatchMerging(
        (reduction): Linear(in_features=1536, out_features=768, bias=False)
        (norm): LayerNorm((1536,), eps=1e-05, elementwise_affine=True)
      )
    )
    (3): BasicLayer(
      (blocks): ModuleList(
        (0-1): 2 x SwinTransformerBlock3D(
          (norm1): LayerNorm((768,), eps=1e-05, elementwise_affine=True)
          (attn): WindowAttention3D(
            (qkv): Linear(in_features=768, out_features=2304, bias=True)
            (attn_drop): Dropout(p=0.0, inplace=False)
            (proj): Linear(in_features=768, out_features=768, bias=True)
            (proj_drop): Dropout(p=0.0, inplace=False)
            (softmax): Softmax(dim=-1)
          )
          (drop_path): DropPath()
          (norm2): LayerNorm((768,), eps=1e-05, elementwise_affine=True)
          (mlp): Mlp(
            (fc1): Linear(in_features=768, out_features=3072, bias=True)
            (act): GELU(approximate='none')
            (fc2): Linear(in_features=3072, out_features=768, bias=True)
            (drop): Dropout(p=0.0, inplace=False)
          )
        )
      )
    )
  )
  (norm): LayerNorm((768,), eps=1e-05, elementwise_affine=True)
  (avgpool): AdaptiveAvgPool3d(output_size=1)
  (fc): Linear(in_features=768, out_features=106, bias=True)
)
[07/04 18:17:33] fvcore.common.checkpoint INFO: No checkpoint found. Initializing model from scratch
[07/04 18:17:33] pts.engine.train_loop INFO: Starting training from iteration 0
[07/04 18:20:18] pts.utils.events INFO:  eta: 2:02:10  iter: 49 -- [49/259]  total_loss: 9.28  soft_target_cross_entropy_loss: 4.609  loss_ofl: 4.663  mask_loss: 0.0001157  time: 0.7139  data_time: 0.2256  lr: 9.4919e-06  max_mem: 21178M
…
